…
sifier Model Summary
========================================

Model Name: best_lstm_model
Vocabulary Size: 10,000
Max Sequence Length: 100
Embedding Dimension: 128
LSTM Units: 64
Number of Classes: 2
Class Names: [0, 1]
Total Parameters: 1,436,673

Model Architecture:
Model: "sequential_2"
┏━━━━━━━━━━━━━━━━━━━━━━━━━━━━━━━━━━━━━━┳━━━━━━━━━━━━━━━━━━━━━━━━━━━━━┳━━━━━━━━━━━━━━━━━┓
┃ Layer (type)                         ┃ Output Shape                ┃         Param # ┃
┡━━━━━━━━━━━━━━━━━━━━━━━━━━━━━━━━━━━━━━╇━━━━━━━━━━━━━━━━━━━━━━━━━━━━━╇━━━━━━━━━━━━━━━━━┩
│ embedding_2 (Embedding)              │ (None, 100, 128)            │       1,280,000 │
├──────────────────────────────────────┼─────────────────────────────┼─────────────────┤
│ bidirectional_4 (Bidirectional)      │ (None, 100, 128)            │          98,816 │
├──────────────────────────────────────┼─────────────────────────────┼─────────────────┤
│ bidirectional_5 (Bidirectional)      │ (None, 100, 64)             │          41,216 │
├──────────────────────────────────────┼─────────────────────────────┼─────────────────┤
│ global_max_pooling1d_2               │ (None, 64)                  │               0 │
│ (GlobalMaxPooling1D)                 │                             │                 │
├──────────────────────────────────────┼─────────────────────────────┼─────────────────┤
│ dense_6 (Dense)                      │ (None, 128)                 │           8,320 │
├──────────────────────────────────────┼─────────────────────────────┼─────────────────┤
│ dropout_4 (Dropout)                  │ (None, 128)                 │               0 │
├──────────────────────────────────────┼─────────────────────────────┼─────────────────┤
│ dense_7 (Dense)                      │ (None, 64)                  │           8,256 │
├──────────────────────────────────────┼─────────────────────────────┼─────────────────┤
│ dropout_5 (Dropout)                  │ (None, 64)                  │               0 │
├──────────────────────────────────────┼─────────────────────────────┼─────────────────┤
│ dense_8 (Dense)                      │ (None, 1)                   │              65 │
└──────────────────────────────────────┴─────────────────────────────┴─────────────────┘
 Total params: 1,436,675 (5.48 MB)
 Trainable params: 1,436,673 (5.48 MB)
 Non-trainable params: 0 (0.00 B)
 Optimizer params: 2 (12.00 B)

